data.pth (torch, 5015 bytes, 6 tensors)

l1.weight f4 [8, 53]
0	0xbe6ccc57	-0.23124824
1	0xbd801083	-0.06253149
2	0xbe34a873	-0.17642383
3	0x3eaa8aa1	0.3330889
4	0x3ea15d2e	0.31516403
5	0x3eb831f2	0.35975605
6	0x3f512a4f	0.8170518
7	0xbdc382cb	-0.09546431
8	0xbf118bd7	-0.56854004
9	0xbe88dbcb	-0.2673019
10	0x3ec71b15	0.3888785
11	0xbe6a0a63	-0.22855525
12	0xbe07d789	-0.13265814
13	0x3ecacd47	0.3960974
14	0x3e34ca0c	0.176552
15	0x3edcf92f	0.43158862
16	0xbdc3fd1b	-0.095697604
17	0x3f127d50	0.5722246
18	0xbe21a0a0	-0.1578393
19	0x3f1fdf50	0.6245012
20	0x3f2431be	0.641384
21	0x3e64099a	0.22269288
22	0xbe733424	-0.23750359
23	0xbe4656d5	-0.19369061
24	0xbd7803eb	-0.06055061
25	0x3eac38b9	0.33637026
26	0xbec9a658	-0.39384723
27	0x3eb71504	0.3575822
28	0xbeaeceff	-0.341423
29	0x3ec0c3c4	0.37649357
30	0x3e551dc4	0.20812136
31	0xbe6020cb	-0.2188751
32	0xbe822b3b	-0.25423607
33	0x3ed1405e	0.4086942
34	0x3edbb137	0.42908642
35	0xbeaa6472	-0.3327976
36	0xbe2b5546	-0.16731748
37	0xbdd0fe44	-0.10204747
38	0x3eac15b4	0.33610308
39	0xbd95e246	-0.07318549
40	0xbe1a8285	-0.15088852
41	0x3dac1480	0.084023476
42	0x3e9032f8	0.28163886
43	0xbdc87db0	-0.09789598
44	0x3ec855ef	0.39128062
45	0xbeea8cb5	-0.45810476
46	0xbe0bc63e	-0.13649842
47	0x3f083c20	0.53216743
48	0xbe843843	-0.25824174
49	0xbed3fbdd	-0.41403094
50	0x3b82793e	0.0039817384
51	0x3dd067d8	0.101760566
52	0x3e2344b1	0.15944172
53	0xbe2e4a50	-0.17020535
54	0x3f247d06	0.6425327
55	0x3ed4f894	0.415959
56	0xbe4222be	-0.18958566
57	0x3e9d9e83	0.30784997
58	0x3f05b5ab	0.5223033
59	0xbf0a6610	-0.54061985
60	0xbcdec970	-0.027195662
61	0xbf078ae3	-0.529463
62	0x3f4de24a	0.80423415
63	0x3eb5c5a4	0.3550235
64	0x3ee6e798	0.45098567
65	0xbe42a088	-0.1900655
66	0x3c8dd00a	0.017311115
67	0x3ea67fa6	0.32519263
68	0xbf0fc927	-0.5616631
69	0x3e4fd257	0.20295082
70	0x3f11c559	0.56941754
71	0xbdf76c97	-0.12081259
72	0x3f1c1ae6	0.60978544
73	0x3f1f6723	0.6226675
74	0x3e74d70c	0.23910159
75	0xbe9529fb	-0.2913359
76	0x3f42c108	0.7607579
77	0x3dbb92c2	0.09158851
78	0x3e3b3650	0.18282437
79	0x3f31fd85	0.69527465
80	0xbcf7f616	-0.03026871
81	0x3e68f43e	0.22749421
82	0xbe971d29	-0.29514435
83	0xbdeb832f	-0.11499631
84	0x3ee108ed	0.43952122
85	0x3c669234	0.0140729435
86	0xbdce2baf	-0.10066926
87	0xbdb239ee	-0.087024555
88	0x3ea78407	0.32717916
89	0xbd2e2007	-0.042511012
90	0xbe22a6cf	-0.15883945
91	0xbe8932e6	-0.26796645
92	0x3ed574c4	0.41690648
93	0xbe0c9c14	-0.13731414
94	0xbdb907da	-0.09034701
95	0xbe35ebba	-0.17765704
96	0xbdc68f68	-0.09695321
97	0xbdb1efe8	-0.086883366
98	0xbf14efeb	-0.58178586
99	0xbe8f763f	-0.28019902
100	0x3ee87e04	0.45408642
101	0xbe90dbd2	-0.2829271
102	0x3f1182ba	0.568401
103	0x3ed9c58c	0.4253353
104	0x3c6f6f42	0.014613928
105	0x3e278213	0.16358213
106	0xbdd86995	-0.10567013
107	0xbda663f5	-0.08124534
108	0xbd5551cf	-0.052079972
109	0xbd40d956	-0.047082268
110	0x3e9ca01b	0.305909
111	0x3ebbc6d2	0.36675125
112	0x3f3f8544	0.7481272
113	0x3e6a63ae	0.22889587
114	0x3f10e015	0.5659192
115	0xbee7ff10	-0.45311785
116	0x3e96cb1a	0.2945183
117	0xbe2e5cbe	-0.17027566
118	0x3eacdca1	0.33762076
119	0xbe07f7d6	-0.13278136
120	0x3ea8861f	0.32914826
121	0x3f32cc3d	0.6984289
122	0x3e97ed35	0.29673162
123	0x3f01e779	0.50743824
124	0xbe28ab26	-0.16471538
125	0x3f005a3a	0.50137675
126	0x3ee1e1a3	0.4411746
127	0x3f1c9387	0.6116261
128	0x3f045ba2	0.5170232
129	0xbe7f3221	-0.24921466
130	0x3d0dc8ed	0.034615446
131	0x3ecfa035	0.40551916
132	0xbe75224f	-0.23938869
133	0xbe1442e6	-0.14478645
134	0xbcc14f04	-0.023597248
135	0x3f099994	0.53749967
136	0xbe481df7	-0.1954268
137	0xbe85e9b6	-0.2615487
138	0xbe664cfa	-0.22490302
139	0xbe6c63dc	-0.23084968
140	0xbeba526c	-0.36391008
141	0xbcc0682b	-0.023487171
142	0x3db0a746	0.08625655
143	0x3e8d9e9e	0.27660078
144	0x3f118e17	0.56857437
145	0xbe0f5e9e	-0.14000937
146	0x3ed84f92	0.42248207
147	0x3e6460a4	0.2230249
148	0xbd0dc65b	-0.034612995
149	0x3eae50f3	0.34046134
150	0xbe9cbe5b	-0.3061398
151	0xbec009b8	-0.37507415
152	0xbe2acaad	-0.16678877
153	0x3eb610b8	0.3555963
154	0x3e7750af	0.24151872
155	0xbe60522b	-0.21906345
156	0xbdefd2e3	-0.11710145
157	0x3e10bd77	0.14134775
158	0xbda66647	-0.081249766
159	0x3eebafaf	0.46032473
160	0x3f0408c3	0.5157587
161	0x3ef5663a	0.47929555
162	0x3ede36c7	0.43401167
163	0xbe736cb9	-0.23771943
164	0xbe63cf7e	-0.2224712
165	0x3f53e18d	0.8276604
166	0xbe38ab1a	-0.1803402
167	0xbefe917b	-0.49720368
168	0x3f55d701	0.83531195
169	0xbeaaad4e	-0.33335346
170	0xbe9d9624	-0.3077861
171	0xbd6d927d	-0.05800103
172	0x3dbdb651	0.0926329
173	0xbeb47948	-0.3524878
174	0x3eca9da4	0.39573395
175	0xbe90ada6	-0.28257483
176	0xbf2ed279	-0.68289906
177	0x3ea87d70	0.329082
178	0xbf1866f6	-0.59532106
179	0xbf2035d1	-0.6258212
180	0xbed3c690	-0.4136243
181	0xbd047371	-0.032336656
182	0x3f078ea7	0.52952045
183	0x3ebcf166	0.36902922
184	0xbe297a39	-0.1655053
185	0xbe967690	-0.2938733
186	0xbe05a034	-0.13049394
187	0x3dcac37f	0.09900569
188	0x3ed16ab8	0.40901732
189	0x3df2733d	0.11838386
190	0xbea29d96	-0.31760854
191	0x3ebf5f8e	0.3737759
192	0x3cbccee1	0.023047866
193	0x3d8fdd20	0.07024598
194	0x3dc76537	0.09736102
195	0x3edfdd58	0.4372356
196	0xbe430c3c	-0.19047636
197	0x3ee86ae9	0.45394066
198	0xbeee0060	-0.4648466
199	0xbdb26e98	-0.087125
200	0xbdbbe86e	-0.09175192
201	0x3e82f252	0.255755
202	0xbe066889	-0.13125814
203	0x3ba0eb95	0.004910896
204	0x3f827404	1.0191655
205	0x3e9ec2e5	0.31008068
206	0xbea0b823	-0.31390485
207	0xbdf72463	-0.12067487
208	0x3de8a1b0	0.113589644
209	0xbdf52de9	-0.11971647
210	0x3e7ec598	0.24880064
211	0x3f024d9c	0.5089967
212	0x3c67e70c	0.014154207
213	0xbe384c2c	-0.17997807
214	0xbd3a0a5e	-0.045420043
215	0x3ed5dc61	0.41769698
216	0xbe72d0b9	-0.23712434
217	0xbf2a4171	-0.66506106
218	0xbf10d080	-0.56568146
219	0x3ed3d696	0.41374654
220	0x3f5a1a27	0.85196155
221	0xbea75826	-0.3268444
222	0xbe993973	-0.29926643
223	0xbdc0b125	-0.09408788
224	0x3ed78cb5	0.42099538
225	0x3efd968d	0.49528924
226	0xbe886682	-0.26640707
227	0xbf10c53a	-0.56550944
228	0x3e909c2c	0.2824415
229	0xbf10d1ac	-0.56569934
230	0x3d8a9127	0.06765967
231	0xbf105363	-0.5637724
232	0xbf10f6c6	-0.56626546
233	0x3e8ef4a8	0.27921033
234	0x3f0b04b5	0.5430406
235	0xbe5ea6b0	-0.21743274
236	0xbda47b7a	-0.08031364
237	0xbe03e757	-0.12881218
238	0xbe80b1ad	-0.25135556
239	0x3f032276	0.5122446
240	0xbe05aa3b	-0.13053219
241	0xbe0789fb	-0.13236229
242	0x3f3e5c35	0.74359447
243	0xbea0f4bb	-0.31436715
244	0x3de2fb26	0.11083059
245	0x3f086372	0.5327674
246	0x3f71d07b	0.9445874
247	0xbd9b9a52	-0.07597794
248	0x3d5f1f48	0.05447319
249	0x3eca627f	0.39528272
250	0xbe9d6b53	-0.30745944
251	0xbe1cfd5b	-0.15331022
252	0x3e9dd194	0.30823958
253	0x3eaa19ae	0.33222717
254	0x3eb8e8cb	0.36115107
255	0x3e7bf3db	0.24604742

l1.bias f4 [8]
0	0x3f1ce308	0.6128392
1	0x3f1166af	0.5679731
2	0x3f5cceab	0.8625285
3	0x3f387f4d	0.72069246
4	0x3f10d161	0.56569487
5	0x3ebbd4ff	0.3668594
6	0x3f05df89	0.5229421
7	0x3f4992ab	0.7873942

l2.weight f4 [8, 8]
0	0x3f99ce4f	1.2016085
1	0x3cf17782	0.029475931
2	0x3f99ab40	1.2005386
3	0xbe2c3529	-0.16817154
4	0xbf47c008	-0.7802739
5	0xbf006561	-0.5015469
6	0xbf67f607	-0.9060978
7	0x3f3485ec	0.7051685
8	0x3f52c98c	0.82338786
9	0xbf8e6af4	-1.112639
10	0x3f664eef	0.89964193
11	0x3f8d39f6	1.1033313
12	0x3fa2e25e	1.2725332
13	0x3df68cc3	0.12038567
14	0x3f16b133	0.58864135
15	0xbe5a4b63	-0.2131782
16	0xbe1d91ae	-0.15387604
17	0x3fb5c285	1.4199988
18	0x3ee38bd7	0.44442627
19	0xbf4f3de2	-0.809538
20	0x3f690757	0.91026825
21	0x3f5869aa	0.8453623
22	0x3f319fb5	0.6938432
23	0x3f15d576	0.5852884
24	0x3e4f2839	0.20230187
25	0xbe6ef1d0	-0.23334432
26	0x3fbcb3b1	1.4742337
27	0xbebd51e0	-0.36976528
28	0xbebb62ac	-0.36598718
29	0x3d701cc4	0.058621183
30	0x3ebfb6a6	0.37444037
31	0x3fa72d4e	1.3060701
32	0x3f5604c7	0.8360104
33	0x3faa1fc6	1.3290946
34	0x3dcf74b0	0.10129678
35	0xbeb7de51	-0.359118
36	0xbf3c9866	-0.7367004
37	0xbddf772a	-0.109114006
38	0x3ee91e83	0.4553109
39	0x3f3a0436	0.72662675
40	0xbeed3767	-0.4633133
41	0x3f136d33	0.575885
42	0x3e957edb	0.29198346
43	0x3fb4fc69	1.413953
44	0xbf022638	-0.5083957
45	0xbf6c4937	-0.92299217
46	0x3f850797	1.0392941
47	0xbe834eae	-0.25645965
48	0xbea6f481	-0.32608417
49	0xbf50b84a	-0.815312
50	0xbea7ac09	-0.3274844
51	0x3eb21fda	0.34789926
52	0x3fc31568	1.5240908
53	0x3ebe6c0b	0.37191805
54	0x3f39cc8d	0.72577745
55	0xbec477d2	-0.38372666
56	0xbf6d7f47	-0.92772335
57	0x3f20df79	0.6284099
58	0x3f2424fa	0.6411892
59	0xbf6786a9	-0.9043985
60	0x3c82cafd	0.015965933
61	0x3f768575	0.9629739
62	0x3f61d127	0.88209766
63	0x3f82aca1	1.0208932

l2.bias f4 [8]
0	0x3f040b98	0.5158019
1	0x3f2592b2	0.64676964
2	0xbe1dc24e	-0.15406153
3	0x3f146dff	0.5798034
4	0x3e661308	0.22468197
5	0x3f64ca2f	0.8937101
6	0x3ef09592	0.46989113
7	0x3e2b5d0f	0.16734718

l3.weight f4 [7, 8]
0	0xbf27a7fb	-0.6549069
1	0x3ce965f5	0.028491
2	0x3f0c144a	0.5471846
3	0x3d79cb3c	0.060984835
4	0xbf931b91	-1.1492788
5	0xbf77291f	-0.9654712
6	0x3e402bbd	0.18766685
7	0x3eecadb3	0.46226272
8	0xbf3aebb3	-0.730159
9	0xbe590697	-0.2119392
10	0x3e663a7c	0.22483248
11	0xbf4b5cf8	-0.79438734
12	0xbc9c8a97	-0.019109054
13	0x3f44b73b	0.7684209
14	0xbf539dfd	-0.82662946
15	0xbee844c4	-0.45364964
16	0xbeeed74e	-0.4664864
17	0x3f19d616	0.60092294
18	0x3f012ce4	0.5045912
19	0xbf9749fa	-1.1819451
20	0xbfb162ad	-1.3858238
21	0xbf92f1fe	-1.14801
22	0x3f449c16	0.7680067
23	0xbf8723dc	-1.0557818
24	0x3f19ae8e	0.60031974
25	0x3f142c60	0.5788021
26	0xbff4aa9a	-1.9114563
27	0x3ecd754e	0.4012856
28	0xbe8574db	-0.26065716
29	0x3da21816	0.0791475
30	0xbfab5946	-1.3386619
31	0xbf50e99f	-0.8160648
32	0x3f3ab187	0.72927135
33	0xbf1dbc0f	-0.6161508
34	0xbe6e7303	-0.23286061
35	0x3e98324a	0.29725868
36	0x3ee4f16b	0.44715437
37	0xbf8c16eb	-1.0944494
38	0xbee10731	-0.439508
39	0xbccbaf3a	-0.024863828
40	0xbfd22e6a	-1.6420414
41	0xbfa410e8	-1.2817659
42	0x3ec5908e	0.3858685
43	0x3e376618	0.1791004
44	0x3ec94cb3	0.3931633
45	0xbf115966	-0.56777036
46	0xbf3a1b6c	-0.7269809
47	0x3f08c86c	0.5343082
48	0xbf662c1a	-0.89911044
49	0x3ef81de6	0.4846031
50	0xbfd53a3c	-1.6658397
51	0xbd60cb46	-0.054881357
52	0xbfe00baf	-1.7503566
53	0x3f15b121	0.584734
54	0x3f5056b5	0.81382304
55	0xbf21277f	-0.6295089

l3.bias f4 [7]
0	0xbdde1700	-0.10844231
1	0xbe6d7222	-0.2318807
2	0x3d543a25	0.051813263
3	0xbe9c769e	-0.30559248
4	0x3dcd877c	0.10035607
5	0x3d000344	0.031253114
6	0x3e9d71c7	0.30750868
